data.pth (torch, 4631 bytes, 6 tensors)

l1.weight f4 [8, 42]
-0.63212013 -0.32218057 0.013600736 -0.31511384 -0.30012754 -0.4792346 -0.63146013 0.027819548
0.068833075 -0.18482755 0.309179 0.098228976 1.0021619 -0.63168025 -0.20874216 -0.25233772
0.28837067 0.23394231 0.366495 -0.33157 0.5862379 0.1907115 0.49187186 0.29446244
0.14148864 -0.18050978 -0.13887875 0.27039346 -0.17541955 -0.653246 0.025104534 0.34157792
-0.30946827 -0.35649347 0.8476267 1.018272 -0.24851689 -0.47337374 -0.00544614 0.16880684
0.30448493 -0.09871799 -0.05792741 0.6477571 0.41882774 -0.53871405 0.68482137 0.12191519
0.8985048 0.45357296 0.2892688 0.5190088 0.05109658 0.020923749 -0.31524986 -0.043723546
-0.53870636 -0.5224545 0.17161074 0.033758044 0.21397285 0.7703831 0.14416885 0.22848956
-0.08413934 1.0714679 0.7051315 0.34737816 -0.07263981 -0.4651289 0.0964317 0.552549
-0.03201491 -0.22343169 0.8170424 -0.53843343 -0.3834686 -0.6947484 0.097910754 0.80921453
0.32785243 0.43925193 0.18294995 0.0055779754 -0.032840837 -0.06507169 -0.025044851 0.4108168
-0.070785604 0.013848575 -0.3129782 -0.57058907 0.24207655 0.46034622 0.4478707 0.024490723
0.87894815 0.05247032 0.48300958 0.4448505 0.04158693 0.14680941 0.47136346 0.0339901
0.55467033 0.5349916 0.23363389 0.92604786 -1.0008086 0.40232277 0.01761 0.2788782
0.14428641 0.07468264 0.08796885 0.10637355 -0.022786496 0.47972074 0.74592376 -0.20861773
0.10273642 0.70052046 0.28478867 -0.35765275 0.25235024 0.08767898 0.84274244 -0.23712043
-0.01689986 -0.19427761 -0.21539032 -0.14442037 -0.52349454 -0.3148745 -0.007294297 -0.3184731
0.30787215 0.1567967 -0.45588386 0.8922538 -0.12322892 -0.15207294 0.18304221 0.44398442
-0.19764791 -0.06990431 0.1817077 0.1875368 0.71027946 -0.7759869 -0.5240783 -0.46479812
0.10960764 1.0817161 0.014808869 -0.11673832 -0.043760933 -0.16436546 -0.09507661 -0.16258383
-0.5236613 1.2432185 0.13020465 -0.6564854 0.09127447 -0.20805152 -0.09311477 0.031850565
-0.20875166 0.6674181 0.56006396 0.38363686 0.8231425 0.83226115 0.95097494 0.5273291
-0.30746448 -0.09613818 -0.18398534 -0.08931847 -0.07938555 -0.1330359 0.59276307 0.47429115
-0.09283588 -0.09282036 0.25240704 0.7668077 0.364858 -0.1927931 -0.013579443 -0.890372
0.6793593 -0.37684554 0.09995968 -0.8902434 0.06788644 -0.0261942 0.047497362 0.3540984
0.8192916 0.40638015 -0.22686604 -0.89044124 -0.27211642 -0.51577145 -0.2460731 0.47504705
0.30099535 -0.13221562 -0.6165414 -0.44781378 0.6258172 0.71351045 -0.3177476 0.021571962
-0.61912644 0.81828624 0.25159428 0.004046515 -0.22980717 -0.1852888 0.11273015 -0.6168488
0.6186467 0.7433654 0.6349041 0.62347 0.2465931 -0.30038568 0.57932395 -0.1972704
0.48942047 0.6402183 1.1457101 -0.18418418 0.03560497 -0.61809 -0.08866839 -0.36880475
0.08087963 -0.116459735 -0.1704096 0.7733198 0.10711093 1.2270383 0.3706049 -0.4337327
0.124215476 0.66515106 0.15288453 0.026475728 0.83068305 -0.21119401 -0.149353 0.26712167
00000000: a0d2 21bf daf4 a4be 9fd5 5e3c 9a56 a1be
00000010: 51aa 99be 3d5e f5be 5fa7 21bf d2e5 e33c
00000020: 5bf8 8c3d 6f43 3dbe b64c 9e3e 462c c93d
00000030: d746 803f ccb5 21bf 81c0 55be 6932 81be
00000040: 52a5 933e 938e 6f3e 3ca5 bb3e 8bc3 a9be
00000050: b013 163f e049 433e a1d6 fb3e c8c3 963e
00000060: 66e2 103e 8ed7 38be 3b36 0ebe 0371 8a3e
00000070: 2fa1 33be 213b 27bf 06a8 cd3c 4de3 ae3e
00000080: a072 9ebe 5086 b6be 10fe 583f bd56 823f
00000090: 367b 7ebe 0b5e f2be 8975 b2bb b3db 2c3e
000000a0: 73e5 9b3e a82c cabd 4b45 6dbd 69d3 253f
000000b0: 9770 d63e 2ae9 09bf 7450 2f3f acae f93d
000000c0: 6904 663f b73a e83e 0a1b 943e c3dd 043f
000000d0: a64a 513d 4868 ab3c 6e68 a1be 7617 33bd
000000e0: a9e8 09bf 94bf 05bf baba 2f3e e045 0a3d
000000f0: b31b 5b3e d437 453f 00a1 133e 2bf9 693e
00000100: 3f51 acbd dc25 893f 7f83 343f 8ddb b13e
00000110: 2ec4 94bd 6025 eebe fc7d c53d da73 0d3f
00000120: 1122 03bd 47cb 64be b129 513f c6d6 09bf
00000130: ff55 c4be 08db 31bf 6f85 c83d af28 4f3f
00000140: 46dc a73e a1e5 e03e 3b57 3b3e 73c7 b63b
00000150: 1d84 06bd 4e44 85bd dc2a cdbc 9456 d23e
00000160: 0bf8 90bd 22e5 623c ae3e a0be 2012 12bf
00000170: eae2 773e 80b2 eb3e 4f4f e53e c5a0 c83c
00000180: bf02 613f 1eeb 563d 084d f73e 72c3 e33e
00000190: 0f57 2a3d 3555 163e 8d56 f13e 3439 0b3d
000001a0: e0fe 0d3f 36f5 083f b93d 6f3e 7911 6d3f
000001b0: 7f1a 80bf 40fd cd3e d942 903c 20c9 8e3e
000001c0: d1bf 133e 36f3 983d 0329 b43d 60da d93d
000001d0: bfaa babc f59d f53e dcf4 3e3f e39f 55be
000001e0: 7967 d23d 4f55 333f d2cf 913e 431e b7be
000001f0: 0d34 813e 0991 b33d f8bd 573f b3cf 72be
00000200: 9371 8abc b6f0 46be 488f 5cbe efe2 13be
00000210: bd03 06bf 3b37 a1be 0005 efbb e80e a3be
00000220: 6ba1 9d3e 508f 203e 9c69 e9be bf6a 643f
00000230: 725f fcbd 02b9 1bbe 6b6f 3b3e ed51 e33e
00000240: 3764 4abe fe29 8fbd 9511 3a3e a609 403e
00000250: e0d4 353f 14a7 46bf ff29 06bf 05fa edbe
00000260: f879 e03d ac75 8a3f e6a0 723c 8014 efbd
00000270: aa3e 33bd 6b4f 28be 87b7 c2bd 607c 26be
00000280: ab0e 06bf c921 9f3f 5e54 053e 6d0f 28bf
00000290: 1cee ba3d 750b 55be f5b2 bebd bd75 023d
000002a0: ffc2 55be eadb 2a3f 5a60 0f3f 0d6c c43e
000002b0: 78b9 523f 110f 553f 1873 733f 0aff 063f
000002c0: fc6b 9dbe 18e4 c4bd a766 3cbe 9aec b6bd
000002d0: e494 a2bd 903a 08be 52bf 173f 4ad6 f23e
000002e0: bd20 bebd 9a18 bebd 7f3b 813e 824d 443f
000002f0: abce ba3e 8e6b 45be 507c 5ebc 6bef 63bf
00000300: 7eea 2d3f e6f1 c0be a9b7 cc3d fee6 63bf
00000310: 0c08 8b3d 3895 d6bc 988c 423d 634c b53e
00000320: 18bd 513f 0f11 d03e 924f 68be f5f3 63bf
00000330: d852 8bbe 9909 04bf 96fa 7bbe 5e39 f33e
00000340: 101c 9a3e 8863 07be a8d5 1dbf d947 e5be
00000350: 8e35 203f 9fa8 363f d0af a2be afb7 b03c
00000360: 127f 1ebf 357b 513f f7d0 803e a198 843b
00000370: 9252 6bbe 59bc 3dbe 11df e63d cee9 1dbf
00000380: a15f 1e3f 324d 3e3f 1389 223f bb9b 1f3f
00000390: e782 7c3e 27cc 99be 934e 143f 4001 4abe
000003a0: 5295 fa3e 59e5 233f a1a6 923f c79a 3cbe
000003b0: 84d6 113d 253b 1ebf c697 b5bd fad3 bcbe
000003c0: 38a4 a53d 7182 eebd db7f 2ebe 49f8 453f
000003d0: fa5c db3d 970f 9d3f edbf bd3e 3612 debe
000003e0: af64 fe3d 5747 2a3f c38d 1c3e a0e3 d83c
000003f0: a5a7 543f 3e43 58be feef 18be 2cc4 883e

l1.bias f4 [8]
0.6312907 0.53653044 1.0391643 0.5220475 0.8903902 0.6161168 0.8176547 0.62890655
00000000: 449c 213f 0f5a 093f 5603 853f e8a4 053f
00000010: 9df0 633f d5b9 1d3f d251 513f 0500 213f

l2.weight f4 [8, 8]
0.9563206 -0.5269963 -0.019816626 1.4499005 -1.0708381 0.21240707 0.26878947 1.1998775
-0.03900369 1.6084126 0.21726647 -0.9474058 1.3305752 0.7048938 -0.73899627 0.46692035
0.48253646 1.2140838 1.1992493 -0.5479366 -0.5519987 -0.55044156 -0.42599997 0.41513056
0.0633558 0.10058377 -0.09576806 -0.03404837 0.0483006 -0.07157007 -0.024401419 -0.1740666
0.1951355 1.4835477 0.3408738 -0.8023645 -0.9663142 0.83139426 0.24942377 -0.4409984
0.8911973 -0.5450248 0.9446355 -0.5442213 0.044144075 1.6576167 -1.0112796 0.82107675
1.553813 -1.924928 0.93042296 0.4948151 -0.58870673 0.62384623 -0.2577848 1.2066923
-0.9274225 0.38316137 1.2874085 1.053148 0.2959659 -0.31143272 1.7945192 -0.7755942
00000000: 6dd1 743f 3be9 06bf 7a56 a2bc 5796 b93f
00000010: 3911 89bf 3d81 593e c69e 893e 9695 993f
00000020: 55c2 1fbd 77e0 cd3f 1a7b 5e3e 3089 72bf
00000030: 4a50 aa3f ec73 343f dc2e 3dbf 2f10 ef3e
00000040: 050f f73e 1967 9b3f 0081 993f 9345 0cbf
00000050: c94f 0dbf bde9 0cbf ab1c dabe fe8b d43e
00000060: b0c0 813d ddfe cd3d 0b22 c4bd 4e76 0bbd
00000070: dad6 453d 5493 92bd 7ce5 c7bc 843e 32be
00000080: 9ad1 473e e4e4 bd3f 0387 ae3e c367 4dbf
00000090: 5e60 77bf 41d6 543f f268 7f3e 8bca e1be
000000a0: 8225 643f bf86 0bbf a2d3 713f 1652 0bbf
000000b0: 6bd0 343d c92c d43f 9c71 81bf 1632 523f
000000c0: 58e3 c63f 0a64 f6bf 3330 6e3f 6858 fd3e
000000d0: 7cb5 16bf 63b4 1f3f 5ffc 83be e574 9a3f
000000e0: 906b 6dbf ba2d c43e cdc9 a43f 8ecd 863f
000000f0: d888 973e 1c74 9fbe ceb2 e53f 578d 46bf

l2.bias f4 [8]
-0.0432306 0.6179733 0.028550008 -0.3767675 -0.2459095 0.4794423 0.13700119 0.74917203
00000000: 9212 31bd 8033 1e3f b5e1 e93c abe7 c0be
00000010: b3cf 7bbe 7679 f53e 0a4a 0c3e bdc9 3f3f

l3.weight f4 [9, 8]
0.1535086 -0.19765991 0.7218019 0.2351207 -0.97044295 0.48842195 0.31735894 -1.8960147
-0.19377463 -0.1669224 0.7273962 -0.050377738 1.0771729 0.033583686 -0.42044342 -1.1822405
0.88567936 -1.4090453 -0.91035765 -0.04311955 -0.4589373 0.3632901 0.39272225 -1.1532294
-1.3142848 -1.0882866 0.8069371 -0.26243207 0.8597519 -1.2971437 -0.82358515 0.08940432
0.054737687 -1.9319959 -1.7987313 -0.25786027 -0.99540734 -0.99177355 -1.5919282 0.97629267
-0.9175516 0.8154337 -0.0022097824 -0.15000543 -1.537786 -0.9948751 -1.2616462 -0.057243373
0.78472656 -1.6667932 -0.24878918 0.122408934 -0.7669372 -1.3915513 0.41997626 -0.01165852
-1.5890805 0.082838066 -1.5778338 0.34204772 -1.692699 0.72366166 0.2745483 0.23960494
-1.065144 0.8293388 -1.4428636 -0.11015206 0.419558 0.6949585 -0.7944399 -1.9745293
00000000: 5c31 1d3e 5c67 4abe 02c8 383f 7bc3 703e
00000010: f36e 78bf 7112 fa3e df7c a23e 9cb0 f2bf
00000020: db6c 46be b5ed 2abe a336 3a3f e358 4ebd
00000030: cde0 893f 0c8f 093d 5c44 d7be a853 97bf
00000040: e2bb 623f 995b b4bf 330d 69bf 209e 30bd
00000050: d4f9 eabe 2901 ba3e e412 c93e 059d 93bf
00000060: 7c3a a8bf fa4c 8bbf 6e93 4e3f 7f5d 86be
00000070: b318 5c3f ce08 a6bf 7ad6 52bf 9d19 b73d
00000080: a034 603d a44b f7bf d43c e6bf 4306 84be
00000090: 04d3 7ebf dfe4 7dbf 4ec4 cbbf 51ee 793f
000000a0: a9e4 6abf 43c0 503f ffd1 10bb 069b 19be
000000b0: 2cd6 c4bf 22b0 7ebf 9f7d a1bf 0778 6abd
000000c0: d7e3 483f 7b59 d5bf 97c2 7ebe 89b1 fa3d
000000d0: ff55 44bf 5a1e b2bf 2107 d73e 6103 3fbc
000000e0: fd66 cbbf 01a7 a93d 75f6 c9bf e120 af3e
000000f0: 5caa d8bf e441 393f 9891 8c3e ff5a 753e
00000100: a356 88bf 8c4f 543f c1af b8bf 6797 e1bd
00000110: 4ed0 d63e cde8 313f 6a60 4bbf 60bd fcbf

l3.bias f4 [9]
-0.017180404 -0.24384312 -0.030981833 0.0324904 0.24933504 0.5171216 -0.11728117 0.02817339
0.41843793
00000000: ebbd 8cbc 03b2 79be 9dcd fdbc a714 053d
00000010: af51 7f3e 1562 043f 1c31 f0bd e2cb e63c
00000020: 7f3d d63e
