data.pth (torch, 5335 bytes, 6 tensors)

l1.weight f4 [8, 55]
0.10479009 -0.32987517 -0.17164482 0.618451 0.3151791 -0.05206081 0.6651449 0.4509022
0.5752936 0.6725032 0.059660897 -0.27074584 0.20816942 -0.16754961 0.5003009 0.39445093
0.29398635 0.6324408 -0.34532455 0.4646604 0.39911208 -0.24536711 0.32810345 -0.08229981
0.11134162 0.5888731 0.17252587 0.1960725 0.39146656 0.058490552 -0.89790016 0.089842945
0.6535923 0.23776996 0.6542836 0.0021746147 0.3712763 -0.42854366 -0.020108918 0.19621614
0.47882983 0.37142596 0.71060896 -0.42085975 0.1086658 -0.05225648 0.6669045 -0.15724975
0.27339655 -0.2128834 0.20809838 -0.14873026 -0.04695539 -0.20162793 0.12080138 -0.08531242
0.6138903 -0.19387119 -0.32874656 -0.05770284 -0.22084849 -0.11639166 -0.20205632 -0.46576947
-0.5336805 -0.3343325 -0.016053438 -0.09631857 0.04544454 0.5352807 0.17793417 -0.13740653
0.8409608 0.5195592 -0.10085629 0.056809336 -0.22539097 -0.25192606 -0.2855529 0.33186403
-0.33122656 0.08070851 0.3453374 0.5497336 -0.026102483 0.27038136 -0.5329713 0.7802607
0.18881786 0.7939913 0.18021445 -0.21950437 0.5631908 0.14054234 0.27133077 -0.20416158
0.06687242 0.64800036 -0.47126254 -0.23867697 0.19627675 0.8542139 -0.10503578 -0.19942051
-0.32380047 0.1478663 -0.008428386 0.0943143 -0.11870525 -0.116279975 -0.17906651 0.7613351
-0.32417196 -0.20598653 0.07818203 -0.25431517 0.9466448 -0.37005475 -0.020301726 -0.69747776
-0.35872245 0.048961293 -0.025248088 0.14197256 0.07705519 0.18999556 -0.3823106 0.05371697
0.71853024 0.933569 0.28984177 0.07932953 -0.23255625 0.23215464 0.2384868 -0.3390725
-0.29554027 0.31531057 0.35101664 0.49609026 0.26623008 -0.645971 -0.034726378 0.043235607
0.77941644 0.45283127 -0.37946403 0.62161046 0.28388846 0.22919187 -0.3260579 0.31007707
0.023326747 0.7334938 -0.3153631 0.30792865 -0.2505437 0.2116179 -0.3553093 -0.36900347
0.33296025 -0.182456 0.2941423 -0.39255044 -0.35863137 0.3486164 0.05261781 0.58588785
-0.28743348 0.20595272 0.44576192 -0.16544934 -0.2414435 -0.46555078 -0.4875524 0.4411524
0.24852672 0.49466997 0.32001424 0.2586273 -0.084875524 0.68780625 0.46401832 0.06764743
-0.20381191 -0.3064229 0.09530489 0.31086034 0.028622102 0.18437085 -0.24449027 0.22377495
0.27049318 0.032607604 -0.10940411 1.1329339 0.54063904 0.4873646 0.03178897 -0.4863405
0.12266169 0.64591277 0.39323482 -0.08610808 0.031477258 -0.20010215 -0.31200477 0.64137316
-0.55076635 0.08942137 0.3299967 1.0694203 0.46250895 0.26435733 0.7946534 0.35455745
0.5812328 0.075278364 0.66342926 0.1615483 0.3978348 -0.5489157 -0.09879597 0.47225553
0.522368 -0.24460594 -0.04075925 0.6613312 0.19768104 0.63005644 0.56944007 0.15067975
-0.08961463 0.10678134 0.6475345 0.3024897 0.6940552 -0.6019218 -0.5332641 0.029772954
-0.23558113 0.12785998 0.44410515 0.11329033 -0.17485379 0.41595042 0.5131606 -0.0006319299
0.6195279 0.18724345 0.27031863 1.0565463 0.9225789 0.222528 0.25153062 -0.17171334
00000000: 309c d63d 66e5 a8be a9c3 2fbe ce52 1e3f
00000010: 285f a13e b73d 55bd f046 2a3f a7dc e63e
00000020: 7146 133f 2b29 2c3f fc5e 743d 339f 8abe
00000030: 5d2a 553e 2092 2bbe b813 003f 79f5 c93e
00000040: 6185 963e a4e7 213f 61ce b0be f8e7 ed3e
00000050: 6b58 cc3e 8441 7bbe 2dfd a73e ce8c a8bd
00000060: 1307 e43d 63c0 163f 9faa 303e 3bc7 483e
00000070: 4e6e c83e ca93 6f3d c9dc 65bf 94ff b73d
00000080: d351 273f f879 733e 217f 273f fb83 0e3b
00000090: ed17 be3e 136a dbbe 75bb a4bc e2ec 483e
000000a0: 2f29 f53e 8b2b be3e 78ea 353f ee7a d7be
000000b0: 2d8c de3d e40a 56bd 41ba 2a3f 1406 21be
000000c0: a2fa 8b3e 1bfe 59be be17 553e bf4c 18be
000000d0: 4c54 40bd 8d77 4ebe b766 f73d 47b8 aebd
000000e0: ea27 1d3f 2b86 46be 7851 a8be d059 6cbd
000000f0: 1b26 62be c05e eebd dae7 4ebe 5679 eebe
00000100: 499f 08bf a12d abbe 8082 83bc ac42 c5bd
00000110: 0e24 3a3d 2808 093f 6034 363e 4cb4 0cbe
00000120: 3549 573f d501 053f be8d cebd e8b0 683d
00000130: e4cc 66be 74fc 80be fd33 92be 15ea a93e
00000140: 8796 a9be 814a a53d 10d0 b03e 57bb 0c3f
00000150: e0d4 d5bc 6d6f 8a3e cf70 08bf 2abf 473f
00000160: 7859 413e 0443 4b3f 238a 383e c1c5 60be
00000170: 462d 103f 55ea 0f3e deeb 8a3e bc0f 51be
00000180: 68f4 883d 5ae3 253f 5349 f1be bc67 74be
00000190: c6fc 483e c3ad 5a3f 001d d7bd e434 4cbe
000001a0: 2dc9 a5be 436a 173e 3717 0abc db27 c13d
000001b0: bd1b f3bd 3224 eebd 365d 37be dbe6 423f
000001c0: def9 a5be 22ee 52be e61d a03d 9935 82be
000001d0: 5057 723f d177 bdbe ce4f a6bc e78d 32bf
000001e0: 78aa b7be a38b 483d 14d5 cebc 4161 113e
000001f0: 1dcf 9d3d 328e 423e 37be c3be 5306 5c3d
00000200: 99f1 373f 61fe 6e3f 2466 943e 8577 a23d
00000210: 3a23 6ebe f2b9 6d3e e235 743e e99a adbe
00000220: 0e51 97be 6370 a13e 74b8 b33e 8bff fd3e
00000230: 4f4f 883e 5b5e 25bf 3f3d 0ebd d217 313d
00000240: d687 473f 80d9 e73e 1c49 c2be dd21 1f3f
00000250: d459 913e 46b1 6a3e 10f1 a6be 6cc2 9e3e
00000260: bc17 bf3c 40c6 3b3f 4677 a1be d3a8 9d3e
00000270: 4447 80be 5db2 583e 1aeb b5be 06ee bcbe
00000280: c479 aa3e bfd5 3abe d299 963e 5ffc c8be
00000290: 889e b7be d97d b23e c685 573d bffc 153f
000002a0: 7b2a 93be 45e5 523e e83a e43e 8d6b 29be
000002b0: f73c 77be ac5c eebe 78a0 f9be bade e13e
000002c0: ca7d 7e3e 6245 fd3e e8d8 a33e cc6a 843e
000002d0: 38d3 adbd 1214 303f cf93 ed3e bc8a 8a3d
000002e0: 12b4 50be 76e3 9cbe 362f c33d 1629 9f3e
000002f0: e678 ea3c b6cb 3c3e a85b 7abe 4325 653e
00000300: 157e 8a3e 8d8f 053d 430f e0bd fa03 913f
00000310: 5267 0a3f da87 f93e 2735 023d 9f01 f9be
00000320: 0d36 fb3d 8a5a 253f 1356 c93e 6f59 b0bd
00000330: 4cee 003d 94e7 4cbe 17bf 9fbe 0831 243f
00000340: 06ff 0cbf 8d22 b73d 54f5 a83e c4e2 883f
00000350: f9cd ec3e d859 873e 686e 4b3f 8e88 b53e
00000360: accb 143f 8b2b 9a3d 80d6 293f eb6c 253e
00000370: 01b1 cb3e bd85 0cbf 8b55 cabd 7acb f13e
00000380: e9b9 053f fb79 7abe 2cf3 26bd 004d 293f
00000390: e66c 4a3e 614b 213f d3c6 113f cb4b 1a3e
000003a0: e087 b7bd 2db0 da3d d2c4 253f eedf 9a3e
000003b0: 9aad 313f 8c17 1abf ff83 08bf 69e6 f33c
000003c0: 2e3c 71be baed 023e c061 e33e c304 e83d
000003d0: df0c 33be 74f7 d43e 7e5e 033f 19a8 25ba
000003e0: 6199 1e3f bfbc 3f3e 3467 8a3e e93c 873f
000003f0: 212e 6c3f 61de 633e 9fc8 803e 9fd5 2fbe

l1.bias f4 [8]
0.9300317 0.528696 0.75591916 0.47998202 0.60015386 0.69065464 0.55773616 0.37823147
00000000: 8f16 6e3f 9f58 073f eb83 413f 34c0 f53e
00000010: afa3 193f bece 303f ccc7 0e3f 8ea7 c13e

l2.weight f4 [8, 8]
0.10389834 -0.049091034 0.40981922 0.6851109 1.126635 1.5249414 -0.94715947 -1.2015891
0.9515606 -0.17269011 0.10571917 -1.5036592 0.5765378 -0.1212293 0.9183557 -0.57585764
0.87259376 -0.6189519 0.050838273 -0.74959886 1.2586961 0.15431654 -0.29877836 1.748409
1.0774981 1.4084358 1.2931951 -0.90162146 -0.4805016 -0.060940128 0.24177718 -0.01881438
1.3518556 -0.4682872 -1.0583656 0.83687884 0.63035417 0.96251345 1.6123731 -0.20872036
-0.2621269 1.2414082 0.35402906 1.5253345 -0.047698017 0.49557948 0.5098915 0.9038193
0.9082954 1.0383134 -0.45005468 -0.1125939 0.8126505 -0.83989465 0.62448806 0.5447636
0.60474104 1.5483892 0.5990639 0.05169066 0.09769073 -0.59629446 -0.7953208 -0.5006983
00000000: a7c8 d43d ae13 49bd d3d3 d13e 6e63 2f3f
00000010: 9335 903f 4831 c33f 0b79 72bf accd 99bf
00000020: 7a99 733f add5 30be 4b83 d83d e877 c0bf
00000030: fb97 133f 1147 f8bd 5c19 6b3f 686b 13bf
00000040: 4e62 5f3f a273 1ebf cb3b 503d b6e5 3fbf
00000050: f41c a13f 2805 1e3e 7af9 98be decb df3f
00000060: 75eb 893f a047 b43f 6b87 a53f aad0 66bf
00000070: 4e04 f6be 5b9c 79bd 7094 773e 9d20 9abc
00000080: 9b09 ad3f 57c3 efbe 8678 87bf b13d 563f
00000090: e45e 213f 4867 763f 3e62 ce3f caba 55be
000000a0: 7f35 86be 77e6 9e3f 4c43 b53e 293e c33f
000000b0: ff5e 43bd 98bc fd3e 4088 023f b460 673f
000000c0: 0c86 683f 74e7 843f 916d e6be a197 e6bd
000000d0: dd09 503f 5603 57bf 73de 1f3f a175 0b3f
000000e0: 4fd0 1a3f 9e31 c63f 405c 193f 96b9 533d
000000f0: 1412 c83d c1a6 18bf 259a 4bbf c42d 00bf

l2.bias f4 [8]
0.33422896 0.2926243 0.25714335 0.58286077 0.37965012 -0.31756362 -0.50570655 -0.037531354
00000000: 0f20 ab3e dad2 953e 4ba8 833e 5d36 153f
00000010: 8061 c23e b397 a2be fc75 01bf 7aba 19bd

l3.weight f4 [11, 8]
-1.1205533 -0.8233139 0.44081762 -1.7299958 0.2315817 -0.006177576 0.52300984 -1.2976947
-1.7466563 -0.51832414 -1.8150853 0.536295 0.09502065 0.14514945 0.2753447 -0.27987313
0.9137688 -1.9526541 -1.7701455 -1.0696638 -0.45167613 0.8921829 -1.0364146 -0.86651903
-1.2831016 -1.5978438 0.99065953 0.5592588 -1.2331215 0.058180716 -1.3914555 -1.2942404
0.03102162 -1.3974221 -0.47747785 -0.6506547 -0.15264994 -0.050487213 0.26340058 0.2621314
0.01928031 -2.172895 -1.7364953 0.9097077 -1.6451305 -0.04005293 -1.4438391 1.0134436
-0.60989964 0.6117581 0.40031204 -0.40033475 0.16936363 -1.7678921 0.2628317 -1.2407365
-1.271377 -2.2195032 -1.6770613 -1.3081212 0.81437176 0.7840775 -0.43670288 -1.6564593
-1.5151137 -0.015159613 0.17858674 0.4044002 -1.3847449 -0.79305494 0.45997602 0.5545652
0.30376592 0.061196275 -0.39021555 0.47420427 0.31456015 -0.9709009 -1.5235018 -0.6916919
0.7689268 -1.269222 0.62048 -2.0365644 0.3929457 -0.64542997 -0.96184707 -1.5093236
00000000: 4a6e 8fbf b3c4 52bf d9b2 e13e 8170 ddbf
00000010: c123 6d3e 436d cabb f9e3 053f dc1a a6bf
00000020: 6f92 dfbf e4b0 04bf b754 e8bf a14a 093f
00000030: 309a c23d 0fa2 143e fbf9 8c3e 884b 8fbe
00000040: c1ec 693f 92f0 f9bf 2194 e2bf beea 88bf
00000050: 1842 e7be 1966 643f 3ca9 84bf 31d4 5dbf
00000060: ac3c a4bf 2586 ccbf dd9b 7d3f 962b 0f3f
00000070: edd6 9dbf e74e 6e3d 371b b2bf aba9 a5bf
00000080: 0d21 fe3c bade b2bf fa77 f4be 4e91 26bf
00000090: 4450 1cbe aecb 4ebd 71dc 863e 1636 863e
000000a0: bef1 9d3c b610 0bc0 7a45 debf 9be2 683f
000000b0: a393 d2bf 8b0e 24bd b8cf b8bf 85b8 813f
000000c0: 6222 1cbf 2e9c 1c3f b3f5 cc3e adf8 ccbe
000000d0: a96d 2d3e 4a4a e2bf e091 863e 74d0 9ebf
000000e0: 7bbc a2bf 570c 0ec0 f2a9 d6bf 8470 a7bf
000000f0: ab7a 503f 4eb9 483f 8597 dfbe dc06 d4bf
00000100: 3fef c1bf 0760 78bc 71df 363e 8b0d cf3e
00000110: 523f b1bf a605 4bbf fa81 eb3e fcf7 0d3f
00000120: 3587 9b3e f2a8 7a3d 55ca c7be e7ca f23e
00000130: 070e a13e f68c 78bf 1b02 c3bf b812 31bf
00000140: 63d8 443f de75 a2bf c7d7 1e3f 1257 02c0
00000150: 2e30 c93e e63a 25bf 9c3b 76bf 8431 c1bf

l3.bias f4 [11]
-0.61527234 -0.12711096 0.17099376 0.411501 -0.7758789 0.11891875 0.24717446 0.22249784
-0.5032859 0.022276148 -0.20849608
00000000: 7d82 1dbf 6029 02be fd18 2f3e 42b0 d23e
00000010: 00a0 46bf ac8b f33d 4d1b 7d3e 79d6 633e
00000020: 58d7 00bf 787c b63c ff7f 55be
